model_conv_14_5_r2_-0.001.pkl (torch, 5891 bytes, 8 tensors)

conv1.weight f4 [6, 1, 4, 4]
000000 26 cf 17 3e be a6 a3 bd 77 f5 28 3d a7 2d 17 be
       0.14825115 -0.07990788 0.04124972 -0.14763509
000010 be c1 9f 3e 3c 12 41 3e ed c1 8e 3c f5 a2 2c 3e
       0.312025 0.18854612 0.017426455 0.16859038
000020 b0 bf 86 3e f7 61 87 3d ab a9 f5 3d d3 c7 a6 3e
       0.2631812 0.06610482 0.11995252 0.3257433
000030 f9 b9 bf 3e 35 06 00 3d 70 5a 19 3e 26 f5 8e bd
       0.37446573 0.03125592 0.14975905 -0.06980352
000040 52 4b a5 3e e5 16 d8 bc 1e c1 5e bd 27 18 1e 3e
       0.32284027 -0.026378104 -0.05438339 0.15438901
000050 d5 0b b9 bd 0b 6b 4b bd 15 d9 ce 3d ed 43 03 bc
       -0.0903546 -0.04966263 0.10099999 -0.0080118
000060 74 f6 a2 3e fa 43 05 be d1 a0 14 3e 16 83 45 3e
       0.31828654 -0.13014212 0.14514472 0.19288287
000070 60 06 2c 3e e8 ed 02 bd 53 2e 96 3e 01 b7 b0 3d
       0.16799307 -0.031965166 0.29332218 0.08628655
000080 c2 f0 3e 3e ae cc 0a 3c 34 9d 5a bd 8b de 9a 3e
       0.1864653 0.008471651 -0.053372577 0.30247912
000090 c2 18 f4 3d 3f d4 4d 3e e4 f8 ec ba d3 db 1a 3e
       0.11918785 0.20100497 -0.0018079546 0.15122919
0000a0 ba c6 d4 bc 7f dc 9a 3d 22 f5 8c be d0 3d 09 be
       -0.025973666 0.075615875 -0.27530771 -0.13402486
0000b0 7c f6 29 3e 47 63 c5 3d b3 99 48 3d 33 fc ef 3d
       0.16597933 0.09638076 0.048974704 0.11718025
0000c0 f6 c3 11 be 3c 5d 59 3d c7 1c fb 3d e1 b8 b9 3e
       -0.1423491 0.05306743 0.12261348 0.36273864
0000d0 05 95 83 bb 43 ae 35 3e 68 89 76 3e 20 51 34 3d
       -0.0040155672 0.17742257 0.24075854 0.04402268
0000e0 80 7e ba 3d 52 d7 08 3e f4 c3 45 3e 1b e5 8a 3e
       0.09106159 0.13363388 0.19313031 0.2712792
0000f0 2c da 5b be 26 95 82 3d 15 0f c0 bd 6f 90 9b 3d
       -0.21469945 0.06376104 -0.09377877 0.07595908
000100 f0 31 a1 3e 32 41 69 bc 49 0e db 3d 6c a3 71 3e
       0.31483412 -0.014236735 0.10696084 0.23597497
000110 a9 69 48 3c 5c d4 14 bd 9e 65 d0 3c 31 27 24 3e
       0.012232223 -0.036335334 0.02543908 0.16030575
000120 69 95 39 3e fd ca 6c 3e 99 99 0f be bc f4 7e 3d
       0.18123402 0.23124309 -0.14023437 0.062245116
000130 87 df 86 3a 0c 8b 57 3d 73 19 43 3e 77 be 30 3e
       0.0010290005 0.05262284 0.19052677 0.17260157
000140 7c 36 bd bd e0 a4 ff 3d 28 49 8f 3c 0a 05 07 3d
       -0.09238908 0.12482619 0.017490938 0.03296379
000150 48 6d 73 3d d7 b1 88 3e 57 8d 6c 3e 33 cb 81 3e
       0.05943039 0.2669818 0.23100792 0.2535034
000160 7c 09 4c 3e b8 b4 79 3d 27 b3 0b 3e 42 6d 37 bd
       0.19925493 0.060963362 0.1364256 -0.04478193
000170 0e fc f9 3d 74 b0 8b 3e 24 1d ac 3e 69 d0 27 bd
       0.12206279 0.2728306 0.33615983 -0.04097024

conv1.bias f4 [6]
000000 3d 6b 51 3e 6b 2b ad 3e 37 2c 98 3e aa 78 84 3e
       0.20451064 0.33822188 0.29721233 0.2587331
000010 4a 42 cb 3e bb 86 a2 bd
       0.39699012 -0.07935854

fc1.weight f4 [16, 30]
000000 6e 46 84 3d 61 4a bc 3d 16 3e fe 3d bf 9d e0 bd
       0.06458746 0.09193874 0.12414186 -0.10967588
000010 8c 1e 93 bd b7 a0 e4 bd 19 15 87 3d 73 9d fa bd
       -0.07183561 -0.111634664 0.06595821 -0.12237062
000020 18 3a 0b 3e 07 3e 29 3c eb 8d fc bd 1a 2d 12 3d
       0.1359638 0.01032973 -0.12331756 0.035687543
000030 e0 b1 97 bd e7 2d 92 3c 6c 18 f7 3c 1c 7b 5e bd
       -0.07406974 0.017844154 0.030163012 -0.054316625
000040 20 6a f0 3c 9e a4 b6 bd e6 af 1d bd fa c0 0a bd
       0.02934748 -0.08918117 -0.038497828 -0.033875443
000050 0a 96 ad bd 10 5d 8f bd e2 19 10 bd 99 ff e2 bd
       -0.08475883 -0.07000172 -0.035180934 -0.11083908
000060 75 7a 9a 3d 80 a8 ae 3d 89 02 81 3d 29 02 24 bd
       0.07542888 0.085282326 0.06299312 -0.040041123
000070 73 ff c9 bd aa a6 37 3d 38 bc 2b 3e cd af 11 3e
       -0.09863176 0.044836678 0.16771019 0.14227219
000080 fa cc 7e 3c 8a c0 74 3d d8 25 80 3d 3e 7c bb 3d
       0.0155518 0.059753932 0.06257218 0.09154557
000090 8e b6 2b bd 29 52 46 bd 7e 24 0b 3c f7 54 7a 3e
       -0.041922145 -0.048418198 0.008492587 0.24446474
0000a0 85 a4 97 3d ed 86 37 3e ec d2 39 be a6 23 a2 3d
       0.074044265 0.17922564 -0.18146867 0.07916956
0000b0 79 68 56 3e cd 62 b5 3d 0d 58 17 3e 58 0c d5 3c
       0.2093829 0.088567354 0.14779682 0.026006863
0000c0 a7 79 1d bc f2 25 8a 3d 0b f7 10 3e bf bd d3 bd
       -0.009611524 0.06745519 0.1415674 -0.103389256
0000d0 46 2c 0f 3e af 83 78 3e c2 31 1b 3d 39 19 0c bc
       0.13981733 0.24268983 0.03788925 -0.008550935
0000e0 a3 15 e0 3a 96 be aa 3a 5b 01 9b 3d 1c b5 9c bd
       0.0017096292 0.001302677 0.07568618 -0.07651731
0000f0 72 9a a2 3e ad dc 53 3e 0d be 4e 3e e5 82 80 3c
       0.31758457 0.2068965 0.20189686 0.015687415
000100 dd a6 c6 bc b9 6f 86 3e 66 a1 a3 3d 6e fa 6f 3d
       -0.024249488 0.26257113 0.07989769 0.058588438
000110 c3 94 c6 3d d3 2e 55 3e 57 2a 29 3e 5e 08 f5 3d
       0.09696343 0.20818643 0.16520058 0.119644865
000120 bf b2 d6 bd 41 0e 71 3e 96 03 4c 3e 67 08 52 bd
       -0.10483312 0.23540594 0.19923243 -0.051277544
000130 c3 21 01 ba df 93 3f 3e 9d 87 5b 3e d7 fa 69 3e
       -0.00049259904 0.18708752 0.21438451 0.22849594
000140 5f 3e 85 3e 2a 2e ab 3d 74 b1 10 3e e0 50 d0 bb
       0.26024148 0.083584145 0.14130193 -0.0063572973
000150 d6 c1 27 3e 11 bf 0c 3e d9 ce 03 bd a4 6c 7d bd
       0.16382536 0.13744761 -0.032179687 -0.061871186
000160 f1 3e ac 3d 2b 6b 4a bb a4 38 98 3e 1d c4 c7 3d
       0.084104426 -0.003088663 0.29730713 0.097542025
000170 3f 1d c6 3d 75 66 40 bd 33 2d 04 3e 1e 86 68 3e
       0.09673547 -0.04697271 0.12907867 0.22707412
000180 ed e7 52 3e 58 b3 a5 3d f2 fb ba 3d 54 10 18 3e
       0.20596285 0.08090848 0.09130086 0.14849979
000190 0e 20 a7 3e 2b 3a 92 3e c8 0e c4 3d a4 5b 6b 3d
       0.32641643 0.28560004 0.09573132 0.057460442
0001a0 c6 98 72 3e 77 20 43 bd fd 41 f9 bd f3 8b 0f 3d
       0.23691091 -0.047638383 -0.121707894 0.035045575
0001b0 6b 41 9e 3c 1f 43 1c 3e 74 5d 8b 3e ab 6e 69 3e
       0.019318303 0.1525998 0.27219737 0.22796123
0001c0 e3 9b 98 3c 3a 95 a3 3d ac 07 77 3d a9 8d 63 3e
       0.01862902 0.07987447 0.06031005 0.22222008
0001d0 10 30 b6 3d 50 b2 1a 3e 6a 58 c2 bd c5 e5 6d 3e
       0.08895886 0.15107083 -0.0948952 0.23232181
0001e0 66 ec b3 3e 9b be 3f bd d5 95 8a 3e 4f 2f 3e bc
       0.35141295 -0.046812635 0.27067438 -0.011607959
0001f0 41 e3 13 3e 7f 5a 7f 3e af 83 1c bc d6 f7 a7 3c
       0.14442159 0.24936865 -0.00955288 0.02050392
000200 ce f2 91 3e f0 3e 2e 3e 56 c8 2d 3e 62 e5 23 3e
       0.28505558 0.17016196 0.16970953 0.16005471
000210 49 ee e9 3d 68 19 82 bd 49 27 cc bb 91 95 53 bd
       0.114224024 -0.06352502 -0.006230269 -0.05165631
000220 44 a8 a9 3d 88 70 01 bd dc b2 c7 bc 2c dc a7 3e
       0.08284047 -0.03160146 -0.024377279 0.32785165
000230 52 e8 a0 3d 2a 7c 67 3e 82 c8 3e 3e 55 ef 02 3e
       0.078568116 0.22605959 0.18631175 0.1278661
000240 ba 7e 32 3d ba c5 17 3d 16 b6 be bd b7 dc 27 3d
       0.043577887 0.0370538 -0.09312074 0.040981974
000250 af fa c7 3d 84 5f 1f 3e 3a ce 3a 3d af 83 34 be
       0.09764611 0.1556378 0.04560683 -0.17628358
000260 57 ab 93 3d 5a d8 61 be bf 93 96 3d 1e a6 04 3e
       0.07210415 -0.22055188 0.07352399 0.12953994
000270 53 00 84 3d ac 12 62 3e 9b 9a 0c be 57 e1 08 3e
       0.06445374 0.22077435 -0.13730852 0.1336721
000280 7f 7b a7 3d 91 c1 b2 3d 9b 29 03 be aa 5d c7 bc
       0.08177852 0.08728326 -0.1280884 -0.024336655
000290 2e 91 ae bd c5 aa 23 3e 34 d5 de bd a5 a3 25 3d
       -0.085237846 0.15983112 -0.10880509 0.040439267
0002a0 44 b7 2c 3d c1 9c bb 3d 1c 19 25 be 8b f2 15 be
       0.042166963 0.09160758 -0.1612286 -0.14643304
0002b0 ce 58 11 be 45 7a 03 3e c6 dc 2e 3e fe fa 81 3d
       -0.14194033 0.12839611 0.17076406 0.06346701
0002c0 3a 1c 94 bd 2b c7 c7 bd 61 78 7f bd 47 ff cc bd
       -0.07231946 -0.09754785 -0.06237066 -0.10009628
0002d0 04 dc d7 bb fc 77 76 bc 14 0a 35 bb bf f3 c0 3d
       -0.006587507 -0.015043255 -0.0027624415 0.09421491
0002e0 e4 d5 12 3d e9 6b 75 bd 09 c1 ca bd 63 f7 ba 3d
       0.035848513 -0.059917364 -0.099001 0.091292165
0002f0 7a 00 1c 3e 71 87 cf 3c 2e ef 41 3c 2e e9 92 ba
       0.15234557 0.025333138 0.01183681 -0.0011208409
000300 72 92 05 bd 78 96 07 3e 0f f2 9b 3d 75 14 47 3d
       -0.032610364 0.13240993 0.076145284 0.048603494
000310 41 ba 73 3e 70 03 41 be 5c 81 16 be a6 31 b6 bd
       0.23801519 -0.18848968 -0.14697784 -0.088961884
000320 31 cc 2b 3d 17 97 9a bd 90 74 b8 3d 89 62 64 bd
       0.04194278 -0.07548349 0.090066075 -0.055758033
000330 05 15 77 3d d4 d3 7a bd d2 22 4c 3c a1 4a 30 bd
       0.06032278 -0.06123717 0.012459474 -0.04303992
000340 86 7b 88 bd 63 71 de 3c 25 5a 06 3d a8 5f 9d 3d
       -0.06664185 0.027153676 0.032800812 0.076842606
000350 91 66 54 3e 1c 2a 35 3e 4b 8a 86 3e 8a 50 a3 3d
       0.20742251 0.17691845 0.26277384 0.07974346
000360 34 eb c2 bb 7e fa 43 3e 49 4e 12 3e 57 a2 15 3e
       -0.0059484486 0.19138524 0.14287676 0.14612709
000370 c5 17 ae 3e 01 f9 ff 3b 22 f7 a3 3c 55 47 b0 3d
       0.3400251 0.007811666 0.020015303 0.086073555
000380 4a 24 20 3d e4 ca b1 3d 5c 7e 72 3d 85 de c3 3d
       0.039097108 0.086812764 0.059202537 0.095639266
000390 68 43 af bd 82 df 97 3e e8 7b 92 bc d1 0e 5c 3e
       -0.085577786 0.2966271 -0.017881349 0.21490027
0003a0 71 ba 7a 3e 1a 6d b0 bd 43 79 a9 bd 15 c2 15 bd
       0.24485184 -0.086145595 -0.08275082 -0.036562044
0003b0 7f de ee 3d e2 92 20 3e a5 0e 6e bd 49 19 38 3e
       0.116635315 0.15681031 -0.058119435 0.17978396
0003c0 e3 28 14 3e 63 ce ec 3c 74 7e 87 3e 7a d1 f0 3d
       0.14468722 0.028907007 0.26463664 0.117587045
0003d0 d1 03 16 3e fd a0 f8 3d 43 6c 10 3e 01 d8 6e 3e
       0.14649893 0.12140081 0.14103799 0.23324586
0003e0 c1 ad 02 bd fc 09 4c 3e 81 ef 00 3e f3 d7 84 3e
       -0.031903986 0.19925684 0.12591363 0.25946006
0003f0 e9 03 fd bd e1 9c eb 3d ed 0d 20 3e e5 0b 13 3e
       -0.123542614 0.11504532 0.15630312 0.14360006

fc1.bias f4 [16]
000000 44 87 73 3d 46 74 04 3e 6c 1d 1e 3e 07 77 98 3e
       0.05945517 0.1293498 0.15440911 0.2977831
000010 a0 74 dd 3d 80 28 ba 3d 0d 6a 82 3d 70 a6 47 3d
       0.1081326 0.09089756 0.06367884 0.04874271
000020 b0 21 8f 3e 2d 7e 16 bc 20 48 44 3d a8 e8 24 3e
       0.2795539 -0.009185356 0.047920346 0.16104376
000030 7e 30 42 3d 2b 42 64 bd 4b 23 1d be ca 62 35 bd
       0.047409527 -0.055727165 -0.15345494 -0.044283666

fc2.weight f4 [8, 16]
000000 c3 c9 7c bd 6f 80 94 bc fb 63 99 3e ea 18 e7 3b
       -0.061715852 -0.018127648 0.29959092 0.0070525305
000010 29 3d 61 bd 6f 4a cd 3e aa 8d 6a 3e c6 c3 80 bd
       -0.054989967 0.4009585 0.22905603 -0.06287341
000020 e2 ca 91 3e 25 44 06 be 4d d1 0c be 90 a5 0f bd
       0.284751 -0.13111933 -0.13751717 -0.035070002
000030 e4 ce 4a 3e 30 35 73 bd eb d2 53 3d 5c 26 ba bc
       0.19805485 -0.059376895 0.05171482 -0.02272337
000040 78 c6 61 3d ac 3c 86 3d 1f a5 93 be 0b b8 13 bd
       0.055120915 0.06554541 -0.28836915 -0.03606419
000050 3b 05 e0 3d 1e 00 0a 3f 1e 49 ae 3d 88 f6 35 3e
       0.10938498 0.5390643 0.0851004 0.17769825
000060 12 b3 ce 3d a1 0e dd ba a4 00 6a be 70 6f 17 be
       0.10092749 -0.0016865322 -0.22851807 -0.14788604
000070 af 89 38 3e 18 2d 3a be 28 31 36 3e ef 41 8c be
       0.18021272 -0.18181264 0.17792189 -0.27394053
000080 e9 f4 bc bd b9 96 cb bd 37 fe d5 3c 0c 6d 96 bd
       -0.092264004 -0.099408574 0.026122196 -0.07345018
000090 de 46 ce 3d 5f 9c 6d 3e 92 55 f6 bd a8 03 fb 3c
       0.100721106 0.23204182 -0.1202804 0.030641392
0000a0 01 3a 14 bb e9 fa d0 bd 38 19 1b 3d 91 ea 87 be
       -0.002261758 -0.10204107 0.037865847 -0.26546147
0000b0 29 49 55 3e 4e f7 b1 bc fd ff 5a 3e 8f b2 71 be
       0.2082869 -0.02172437 0.21386714 -0.23603271
0000c0 51 7f 53 be a1 d3 62 be 6a f1 68 3b 61 a7 d5 3d
       -0.20654036 -0.22151043 0.0035544285 0.104323156
0000d0 d7 cd be bc 07 92 c6 bd dd 49 27 3e 43 42 71 3d
       -0.023291511 -0.09695821 0.1633677 0.058901083
0000e0 6a 82 4f be a5 2d 6c 3e dc 60 33 3e 8c 4a 16 be
       -0.20264593 0.23064287 0.17517418 -0.14676875
0000f0 60 47 74 be cf b5 3d 3d 00 0c 9c bc 71 8d 96 3d
       -0.23855352 0.046315964 -0.01904869 0.073511966
000100 09 b8 32 3e 78 38 5e be 00 05 3b be 1c e3 aa 3d
       0.17453016 -0.21701229 -0.18263626 0.08344099
000110 65 02 8d 3b d9 d2 bc bd d8 0c 10 3e b4 92 b1 3d
       0.004303264 -0.092199035 0.140674 0.086705595
000120 e6 39 a7 bc 7f cd 58 be e8 1f 69 be c2 b1 b3 bd
       -0.02041335 -0.2117214 -0.22766078 -0.08774139
000130 3d 9e 15 3e 41 2f 9a bd e0 70 22 3e ea ca ea bd
       0.14611144 -0.07528544 0.15863371 -0.11464484
000140 75 ae e9 3d aa 46 8f 3e 0f 86 50 3d 01 64 1f 3e
       0.11410228 0.279836 0.0509091 0.15565492
000150 1b db 19 be e2 ba d2 be d6 5b e8 bb e4 ea be 3d
       -0.15024988 -0.41158205 -0.007091026 0.093221456
000160 b7 18 a2 3c c8 61 fa 3c bf 29 16 3d 0b bf e6 bb
       0.019787176 0.030564204 0.036660906 -0.007041817
000170 37 86 6f 3e b1 5c 24 be 53 b7 72 3d 21 14 32 be
       0.23391043 -0.16050984 0.059256863 -0.17390491
000180 d6 b1 aa 3d 23 6d 3e 3e e3 25 3e be 41 c4 77 bd
       0.08334701 0.1859632 -0.1856914 -0.060489897
000190 54 42 e6 3d 25 07 fe bc 11 07 7a 3d af 69 cf 3d
       0.1124312 -0.031009266 0.061041895 0.101275794
0001a0 5b 57 de bd ff 86 06 3d 33 39 dc bd 9c 2d ca 3c
       -0.108565055 0.032843586 -0.107530974 0.024679951
0001b0 f8 91 42 be 66 c5 21 3e 99 14 13 3e ba 20 7c 3e
       -0.19000995 0.15797958 0.14363326 0.24621859
0001c0 e4 84 2e be 6c aa 2f 3e c7 3e 03 3e 84 54 ab 3e
       -0.17042881 0.17154855 0.12816916 0.33462918
0001d0 5e ed d0 3e 7b df 06 bf e7 44 50 3d cf 21 b5 3e
       0.40806097 -0.52684754 0.05084696 0.35377356
0001e0 15 66 84 3e c6 10 3f be c0 c1 1a be 33 64 a2 3d
       0.25859132 -0.18658742 -0.15112972 0.07929268
0001f0 b7 74 8b 3e 91 f6 05 be 9c 28 64 be 85 f4 78 3e
       0.27237484 -0.13082339 -0.22281116 0.24312027

fc2.bias f4 [8]
000000 db 9e 79 be 68 dd 5c 3c 3f 88 c8 3d d8 e3 20 3e
       -0.24377005 0.013480522 0.09791612 0.15711915
000010 8a b3 19 be 4e 3c 84 3e 11 1c 19 be 7a d6 2e 3e
       -0.15009895 0.2582726 -0.14952113 0.17074004

fc3.weight f4 [2, 8]
000000 52 c5 17 3e 58 b6 0e be 85 93 09 be 18 eb 05 3d
       0.14821365 -0.13936746 -0.1343518 0.032694906
000010 e4 cc 90 be a4 42 2e bd 28 ad 2f be 00 79 8e 3e
       -0.2828132 -0.042544022 -0.17155898 0.2782669
000020 d2 50 9a be 4b 6f 78 be d7 7f 34 be f4 bc 6b be
       -0.30139786 -0.24261205 -0.17626892 -0.23021299
000030 cd 09 94 be 87 86 a1 3e 06 dd d5 3e 57 47 dd 3e
       -0.28913727 0.3154795 0.4177019 0.4321849

fc3.bias f4 [2]
000000 ec 37 4c be c0 3a 96 3e
       -0.19943208 0.29341698
