model_conv_14_5_r2_-0.001.pkl (torch, 6083 bytes, 8 tensors)

conv1.weight f4 [6, 1, 3, 3]
-0.041157886 -0.20058501 0.3600239 0.24913071 0.10099836 0.36250544 0.3437117 0.13483295
0.06642759 0.1531925 0.122953966 0.12289332 0.10259117 0.11927831 -0.013129673 0.011533271
-0.03451018 0.49896315 -0.14960268 0.32706735 0.32359436 -0.20337518 0.29421446 0.26032075
-0.22567263 0.008156057 0.31943312 -0.0074438476 0.30730873 0.2034932 0.31829032 0.32940054
0.090524405 0.17070815 -0.055477995 0.03163387 0.461657 -0.013020926 0.26034853 0.07037243
0.04313591 0.038714428 0.2775427 0.06319711 -0.16808192 -0.13261378 -0.107345305 -0.32961375
-0.08648376 -0.11769172 -0.12495506 -0.33010408 -0.2714134 0.12921123
00000000: 2c95 28bd 2866 4dbe 0d55 b83e 1f1c 7f3e
00000010: 3ad8 ce3d 509a b93e fbfa af3e a611 0a3e
00000020: 300b 883d 7fde 1c3e 4acf fb3d 7eaf fb3d
00000030: 521b d23d 3048 f43d d71d 57bc 0bf6 3c3c
00000040: 8c5a 0dbd 1978 ff3e 7231 19be 5f75 a73e
00000050: 29ae a53e 9541 50be 47a3 963e c348 853e
00000060: ba16 67be fca0 053c bd8c a33e 85eb f3bb
00000070: 9257 9d3e 8560 503e f3f6 a23e 30a7 a83e
00000080: dc64 b93d 1ece 2e3e e53c 63bd 8492 013d
00000090: 4e5e ec3e b955 55bc 674c 853e 6c1f 903d
000000a0: 48af 303d 0593 1e3d 141a 8e3e 7d6d 813d
000000b0: ab1d 2cbe e8cb 07be dbd7 dbbd 22c3 a8be
000000c0: 661e b1bd 5b08 f1bd 70e8 ffbd 6703 a9be
000000d0: b2f6 8abe f34f 043e

conv1.bias f4 [6]
0.027466243 0.22469546 0.436729 0.11319192 0.32454017 -0.25612816
00000000: e300 e13c 9116 663e f29a df3e 2ad1 e73d
00000010: 212a a63e 3b23 83be

fc1.weight f4 [16, 36]
-0.02552489 -0.020155303 0.022350729 -0.09520225 0.048409887 -0.06157935 -0.1100381 -0.045200076
-0.10001221 -0.14123635 -0.11918115 0.011105198 0.093543224 0.097810715 0.12430927 -0.10556495
-0.0017764657 -0.022090914 -0.11112755 -0.053667624 0.10149452 -0.16788478 0.014231626 0.1189678
-0.043882538 0.15213494 0.14377356 0.01697733 0.0013367462 -0.048940573 0.046327036 -0.045216642
-0.10865414 0.123938665 0.15214811 0.13295496 0.006933172 0.2678046 0.08385177 0.08522332
-0.033368737 0.12691869 0.10807126 0.05349056 0.23826107 0.22471847 0.1943717 0.054440904
-0.08283601 0.010049202 0.07408009 -0.104578115 0.15158905 0.21497661 0.20512645 0.09721608
0.05900656 0.034799088 0.12086028 0.055257887 0.22871721 -0.035374206 0.19312872 0.0053262133
0.15959854 0.27901325 -0.0065368414 -0.11903914 0.12665711 -0.15027075 -0.08464384 0.0069053574
0.0016078836 0.033839203 -0.046871223 -0.042570602 -0.04103827 -0.05861944 0.11227064 0.03138483
-0.12351815 -0.09502443 0.13853729 -0.060856782 -0.16629769 -0.08358824 0.11863406 -0.068134144
0.10883907 -0.069404796 0.13649066 0.09231772 -0.013827249 -0.13887879 0.15218952 0.1421607
-0.17829363 0.020707298 -0.11173546 0.060462426 -0.17049897 -0.10336981 0.07857959 -0.0107168555
-0.15612364 0.15809505 -0.033279818 -0.10152429 0.16890469 -0.00069114263 -0.032941457 0.20037901
0.17391285 0.0676887 0.29830596 0.12764451 0.24589732 0.19495527 0.030318914 0.107468195
-0.0931715 0.17364599 0.030309005 -0.0055287196 -0.003933264 0.059926793 0.17916104 0.1100798
0.15905319 0.0027230494 -0.031752683 0.12164234 0.1546985 0.106909685 0.033895925 -0.03242679
0.122431874 0.18538652 0.029947441 0.010646403 0.04418274 0.14301863 -0.036067925 0.022231301
0.10948687 0.058357865 -0.021709148 -0.023589801 -0.019217532 -0.068822764 -0.016269566 -0.11992469
0.09855424 -0.049124245 0.13064924 -0.1466615 0.06889513 -0.038702082 0.0052502933 0.08226807
-0.13133559 0.09709349 -0.13545322 -0.034546174 -0.10931975 -0.110008016 0.03724656 0.011708068
-0.07204671 0.12159272 -0.15693013 0.0630157 -0.03957052 0.0929798 0.10344734 -0.08855232
0.15217128 -0.0071890755 -0.09163612 0.08635493 0.104389586 0.052256938 -0.036640875 0.092536226
0.21067524 0.19095038 -0.0036952 0.14276314 0.10826869 0.0572642 0.12725402 0.15542983
0.187679 0.12524134 -0.023470877 0.05372362 -0.1009334 0.22892323 0.16842234 0.20472434
0.06449789 0.059178017 0.09497281 0.08898432 0.24743716 0.0606707 0.07151694 0.19011086
0.11803284 0.10352292 -0.0710243 -0.06623268 0.015102943 0.116388425 0.12380773 -0.08963512
0.023479223 -0.07333791 0.07166003 -0.14538974 -0.027939957 0.017055094 -0.056142412 -0.10199895
0.097210154 -0.13630575 0.07990323 0.11198521 -0.07760978 -0.048494995 -0.12443205 -0.048124373
-0.16286501 -0.034510136 -0.12648761 0.08759042 0.16010532 0.057565473 -0.09667315 -0.10846023
0.14130718 0.08805728 -0.07958957 -0.009029349 -0.14215392 0.0031321049 -0.047261 -0.034745257
-0.050792813 -0.14824063 -0.07372069 -0.12896943 -0.096383095 -0.13417792 -0.08556013 0.15147226
00000000: 9319 d1bc bc1c a5bc e018 b73c 66f9 c2bd
00000010: 7249 463d a13a 7cbd a85b e1bd b723 39bd
00000020: 34d3 ccbd 43a0 10be 3f15 f4bd 94f2 353c
00000030: 9793 bf3d fc50 c83d dc95 fe3d 7032 d8bd
00000040: 4cd8 e8ba 01f8 b4bc d796 e3bd 95d2 5bbd
00000050: 5cdc cf3d fde9 2bbe c42b 693c 64a5 f33d
00000060: 2dbe 33bd 43c9 1b3e 6039 133e 0b14 8b3c
00000070: c235 af3a e975 48bd 6bc1 3d3d 1635 39bd
00000080: 1086 debd 8ed3 fd3d b7cc 1b3e 5825 083e
00000090: a92f e33b af1d 893e 7aba ab3d 9089 ae3d
000000a0: a8ad 08bd f9f6 013e 7754 dd3d eb18 5b3d
000000b0: b6fa 733e 991c 663e 6009 473e 6dfd 5e3d
000000c0: eda5 a9bd 68a5 243c 4db7 973d 0d2d d6bd
000000d0: 293a 1b3e d422 5c3e ab0c 523e 3919 c73d
000000e0: ddb0 713d 7d89 0e3d 9885 f73d 1856 623d
000000f0: d834 6a3e 8be4 10bd 89c3 453e 8487 ae3b
00000100: cd6d 233e d3da 8e3e 0033 d6bb cbca f3bd
00000110: 67b2 013e 93e0 19be c059 adbd 5646 e23b
00000120: 9fbf d23a fa9a 0a3d 0afc 3fbd 835e 2ebd
00000130: bf17 28bd f01a 70bd 26ee e53d 618d 003d
00000140: 15f7 fcbd 2b9c c2bd b8dc 0d3e f644 79bd
00000150: f149 2abe 5030 abbd 6af6 f23d ea89 8bbd
00000160: 05e7 de3d 1a24 8ebd 35c4 0b3e 1311 bd3d
00000170: b08b 62bc 3e36 0ebe 92d7 1b3e 9392 113e
00000180: 9b92 36be 5aa2 a93c 90d5 e4bd 73a7 773d
00000190: 4897 2ebe 8db3 d3bd 56ee a03d c095 2fbc
000001a0: e0de 1fbe abe3 213e 6b50 08bd f8eb cfbd
000001b0: 5af5 2c3e cc2d 35ba 9fed 06bd 2830 4d3e
000001c0: 3616 323e 60a0 8a3d 8fbb 983e 3eb5 023e
000001d0: 82cc 7b3e 5ba2 473e 5f5f f83c 4918 dc3d
000001e0: b3d0 bebd 41d0 313e 974a f83c 432a b5bb
000001f0: 9ce2 80bb cc75 753d fe75 373e 8571 e13d
00000200: d7de 223e 3075 323b 1a0f 02bd 9f1f f93d
00000210: 4969 1e3e 77f3 da3d 74d6 0a3d f4d1 04bd
00000220: 90bd fa3d f7d5 3d3e 5654 f53c 406e 2e3c
00000230: f6f8 343d 7a73 123e f6bb 13bd 6b1e b63c
00000240: a73a e03d a808 6f3d 62d7 b1bc 663f c1bc
00000250: 166e 9dbc f3f2 8cbd c147 85bc 139b f5bd
00000260: ced6 c93d 8136 49bd eac8 053e 6f2e 16be
00000270: e418 8d3d 1386 1ebd a70a ac3b 297c a83d
00000280: d67c 06be f4d8 c63d 40b4 0abe 4a80 0dbd
00000290: 08e3 dfbd e24b e1bd d98f 183d 32d3 3f3c
000002a0: 3a8d 93bd 9b05 f93d 4bb2 20be 600e 813d
000002b0: b314 22bd 326c be3d 33dc d33d eb5a b5bd
000002c0: cad2 1b3e 5692 ebbb b8ab bbbd dbda b03d
000002d0: 35ca d53d 5f0b 563d be14 16bd a283 bd3d
000002e0: 40bb 573e 7f88 433e 2b2b 72bb 8030 123e
000002f0: fabb dd3d de8d 6a3d e14e 023e ff28 1f3e
00000300: ec2e 403e 443f 003e ff45 c0bc 4c0d 5c3d
00000310: 2cb6 cebd da6a 6a3e e876 2c3e 42a3 513e
00000320: 7817 843d a664 723d 1b81 c23d 693d b63d
00000330: 2b60 7d3e d781 783d 7977 923d 6cac 423e
00000340: 34bb f13d d303 d43d 3075 91bd 00a5 87bd
00000350: 5672 773c 0e5d ee3d e88e fd3d 9e92 b7bd
00000360: 8057 c03c 3032 96bd 7ec2 923d 0ce1 14be
00000370: 56e2 e4bc 20b7 8b3c 96f5 65bd d3e4 d0bd
00000380: 1e16 c73d bc93 0bbe 4ea4 a33d 8058 e53d
00000390: e0f1 9ebd b0a2 46bd 3bd6 febd 101e 45bd
000003a0: 16c6 26be 805a 0dbd f885 01be 9b62 b33d
000003b0: a6f2 233e c6c9 6b3d 93fc c5bd 6620 debd
000003c0: d4b2 103e 6057 b43d dbff a2bd d6ef 13bc
000003d0: cc90 11be 0044 4d3b c094 41bd 0b51 0ebd
000003e0: 200c 50bd 64cc 17be e0fa 96bd 9010 04be
000003f0: 8064 c5bd f065 09be 263a afbd 8b1b 1b3e

fc1.bias f4 [16]
0.06860362 0.257351 0.10395251 0.242417 0.0073867394 1.7530232e-05 -0.16445737 0.1134491
0.018849634 0.13119878 -0.09384626 0.027984247 -0.0052014943 0.025295896 0.1254883 0.015632438
00000000: 0e80 8c3d 83c3 833e 0ee5 d43d 293c 783e
00000010: 760c f23b e30d 9337 8367 28be 0058 e83d
00000020: 8c6a 9a3c f958 063e 7832 c0bd 383f e53c
00000030: 4c71 aabb 5739 cf3c 0180 003e 990f 803c

fc2.weight f4 [8, 16]
-0.23808277 0.21253683 -0.23491494 0.17454769 -0.16029 0.28505385 -0.021252066 -0.18076909
0.35000807 0.038975198 0.3039104 -0.06962171 0.17035168 -0.22686578 -0.51537955 -0.15840521
-0.22946255 0.022594323 0.07270866 0.29336637 0.10010673 0.20737252 -0.21824306 0.14300123
0.21252061 -0.1726387 0.44882444 0.3292441 0.13633457 -0.0648574 -0.4006949 -0.21023868
-0.20558994 0.01787569 0.20611124 -0.037393495 0.0772511 0.15133141 -0.026617944 -0.021611422
0.062131137 0.15828197 -0.18487294 -0.18864952 -0.0407626 -0.07267331 0.41278803 -0.099883854
0.033520557 0.16774195 -0.20298237 0.13247848 -0.22978821 -0.328795 0.20179826 0.21425849
-0.2361096 -0.24473184 -0.26941156 0.1263932 0.082120895 0.20281084 0.23326746 -0.031204307
0.119928814 -0.029053742 -0.1016855 -0.020095678 -0.042848762 0.060259692 -0.07606256 -0.15119687
-0.22468817 -0.104027525 0.029106284 0.17054039 -0.14473784 0.11472357 0.0313073 0.1552382
-0.08369882 0.3776062 0.25096607 0.26781017 -0.21263488 0.26463544 -0.22800249 0.0574829
-0.06515408 0.04852774 0.39668232 0.29014394 0.11834466 -0.038170125 -0.5270178 -0.19673818
-0.07600725 0.08367374 -0.0006206033 0.2805334 -0.083632946 0.20721821 0.16314095 -0.1143828
0.08491423 0.12708947 0.27773166 -0.024174357 0.07783082 -0.085578956 -0.43747884 0.12486676
0.025524978 -0.080432706 0.042310044 0.11615604 0.13079739 0.23181595 -0.13278556 0.00024193525
0.36309642 0.121421814 0.16497655 0.27135664 0.005459113 0.18443426 -0.08045139 -0.15045804
00000000: f8cb 73be 41a3 593e 8b8d 70be a1bc 323e
00000010: 1023 24be 94f2 913e d018 aebc 881b 39be
00000020: 4234 b33e 75a4 1f3d 259a 9b3e d495 8ebd
00000030: ac70 2e3e 814f 68be eaef 03bf fa34 22be
00000040: 3bf8 6abe bb17 b93c 47e8 943d 1e34 963e
00000050: c204 cd3d 7659 543e 1c7b 5fbe ea6e 123e
00000060: 019f 593e 33c8 30be 51cc e53e af92 a83e
00000070: 4a9b 0b3e f5d3 84bd e227 cdbe cf48 57be
00000080: 2b86 52be 0a70 923c d30e 533e ec29 19bd
00000090: d335 9e3d 9ff6 1a3e e00d dabc 700a b1bc
000000a0: 387d 7e3d ab14 223e 554f 3dbe 572d 41be
000000b0: aff6 26bd bfd5 94bd f458 d33e e88f ccbd
000000c0: da4c 093d 8cc4 2b3e 9cda 4fbe 70a8 073e
000000d0: 9a4d 6bbe d157 a8be 34a4 4e3e 9466 5b3e
000000e0: b7c6 71be fc9a 7abe 50f0 89be 386d 013e
000000f0: 002f a83d a5ad 4f3e aadd 6e3e 2da0 ffbc
00000100: 3d9d f53d 1d02 eebc 7d40 d0bd b19f a4bc
00000110: 2f82 2fbd ded2 763d b0c6 9bbd 5ad3 1abe
00000120: a814 66be 620c d5bd 4d70 ee3c 24a2 2e3e
00000130: 2836 14be 31f4 ea3d 153c 003d c3f6 1e3e
00000140: 496a abbd 9a55 c13e a07e 803e 6a1e 893e
00000150: f5bc 59be 4c7e 873e 7c79 69be 3073 6b3d
00000160: 816f 85bd 06c5 463d f219 cb3e bf8d 943e
00000170: af5e f23d 4758 1cbd a3ea 06bf bc75 49be
00000180: b0a9 9bbd 235d ab3d fcaf 22ba 13a2 8f3e
00000190: c047 abbd 0331 543e 6c0e 273e 8841 eabd
000001a0: 83e7 ad3d be23 023e d832 8e3e 4d09 c6bc
000001b0: c465 9f3d 0544 afbd 3afd dfbe 25ba ff3d
000001c0: c219 d13c e7b9 a4bd 4c4d 2d3d 38e3 ed3d
000001d0: c0ef 053e 2961 6d3e f0f8 07be 00b0 7d39
000001e0: c6e7 b93e 00ac f83d 9def 283e 42ef 8a3e
000001f0: 5ce2 b23b 56dc 3c3e b3c3 a4bd ac11 1abe

fc2.bias f4 [8]
-0.11645751 0.24412738 -0.015777757 0.053550392 -0.09504764 0.3665021 0.3046753 0.36533695
00000000: 4681 eebd 87fc 793e 5b40 81bc a857 5b3d
00000010: 56a8 c2bd 2aa6 bb3e 67fe 9b3e 720d bb3e

fc3.weight f4 [2, 8]
0.4080475 0.36508155 -0.24334891 0.31386942 -0.08923396 0.061776165 0.15416242 -0.16614461
0.35583693 0.108709365 -0.48220158 -0.28128296 -0.3400972 0.26611868 0.036097404 0.2645073
00000000: 9aeb d03e f8eb ba3e 7530 79be 7eb3 a03e
00000010: 4bc0 b6bd 0109 7d3d c1dc 1d3e d021 2abe
00000020: 4230 b63e 04a3 de3d 20e3 f6be 5204 90be
00000030: 3821 aebe b540 883e dfda 133d 806d 873e

fc3.bias f4 [2]
-0.15525113 -0.0018941091
00000000: 27fa 1ebe c143 f8ba
