model_big_14.pkl (torch, 67779 bytes, 10 tensors)

0.weight f4 [70, 70]
000000 6a d0 2b 3d 0e 88 05 be 77 77 7f 3d f6 d4 01 be
       0.041946806 -0.13040182 0.06236979 -0.12678894
000010 2d f9 e4 bd 1d 88 00 be 7a 69 a2 bb ce 8f fb 3c
       -0.11180339 -0.12551923 -0.0049564214 0.03070822
000020 1d bf c3 bd e5 1b ca bd 9b 0d e4 bd 90 ba 89 3d
       -0.09557936 -0.09868602 -0.111354075 0.06725037
000030 21 d2 f4 bd 5f ad a0 bd 58 fd e5 bd b6 b8 00 bc
       -0.119541414 -0.07845568 -0.11229962 -0.0078565385
000040 58 a1 e1 bb f8 51 87 bd fa 51 e6 3c e0 18 e8 bd
       -0.0068856888 -0.06607431 0.028115261 -0.113328695
000050 5b ff 01 be 5e 18 50 3b 2e 2e 2e bd cf 02 3e 3d
       -0.12695067 0.0031752805 -0.04252451 0.046389397
000060 62 eb 91 bd 61 03 ab 3d fd 37 d3 3c ab ad 53 bd
       -0.07124974 0.08350254 0.025783533 -0.051679295
000070 30 d4 0d 3c 5e bf 9b bd c7 c7 d5 bd 86 bd 15 bb
       0.0086565465 -0.0760486 -0.10438495 -0.002284856
000080 8c 62 a8 bb dd b5 c5 3d 64 0c b3 3b 60 82 46 3a
       -0.005138701 0.09653828 0.0054641236 0.0007572528
000090 df fa d0 bd 84 0f b3 3b ac bd 29 bc eb 94 a1 3d
       -0.102041 0.005464496 -0.010360163 0.07889732
0000a0 1a 26 04 bd 14 a6 cf bd 77 97 70 bc 34 92 d8 3d
       -0.0322629 -0.10139099 -0.0146845495 0.10574761
0000b0 37 e0 04 be 87 7f a9 bd 8f 13 9e bc dd 56 de bd
       -0.12976156 -0.08276277 -0.019296436 -0.108564116
0000c0 48 24 06 be 45 99 37 bd 1d 22 8e bc ef 8f a9 bd
       -0.13099778 -0.044823904 -0.01735025 -0.08279406
0000d0 ab 4b 8f bb e0 3a 90 3d d5 cf 9e 3d 35 90 9e 3d
       -0.004373034 0.070424795 0.077544846 0.07742349
0000e0 de 5e 57 bd 2d 34 80 3d 39 2a 8d 3d f7 cf cd bc
       -0.052580707 0.06259952 0.06892819 -0.02512358
0000f0 26 1c 6e 3d fe a6 d6 3b d8 f7 d4 3d e1 45 50 3c
       0.058132313 0.0065506687 0.10398835 0.012711973
000100 82 bc 92 bd 23 fa a4 3d 94 f7 98 3d 11 87 0e be
       -0.07164861 0.08055522 0.07469097 -0.13918711
000110 cd a2 aa 3d 33 d2 05 3b 06 f1 77 bc a7 d3 7c bd
       0.08331833 0.0020419478 -0.015133148 -0.061725285
000120 72 19 01 be ca a1 66 3d 22 0f 9a 3c d3 5f 9f 3d
       -0.12607363 0.056306638 0.018806044 0.07781949
000130 60 88 3e bb 84 14 43 3c 4f c6 d2 3c b0 60 d3 3c
       -0.0029072985 0.011906747 0.025729327 0.02580294
000140 56 0a 99 3d 11 ba 5e bd c4 05 2f bd 23 81 b5 3d
       0.074726745 -0.054376666 -0.042730108 0.088625215
000150 b8 55 ea bd ab a1 27 bd 51 4a b4 bb 4c ec 13 3d
       -0.11442131 -0.040925663 -0.0055020233 0.036114022
000160 c2 95 d3 3d 32 cb 74 3c 27 e6 d2 3d 6a ee 68 3d
       0.103312984 0.014941024 0.10297804 0.056867994
000170 c7 f5 87 bd 02 7c 10 3c e4 fc ce bc 06 7d dc bd
       -0.06638675 0.008818628 -0.025267072 -0.10766034
000180 bb 0c 95 3d 1f 23 02 be ed b3 61 bb 56 b1 50 bc
       0.07277819 -0.1270871 -0.003443952 -0.012737593
000190 16 bf a2 bd 08 13 60 bb 1d 0d 3e 3d 38 05 fa 3c
       -0.07946603 -0.003419103 0.046399225 0.030520067
0001a0 21 86 51 bc 20 86 00 be 21 93 08 bd a1 f1 87 bc
       -0.0127883265 -0.12551165 -0.033343438 -0.01659471
0001b0 78 23 37 3d a9 00 9f 3d e0 9a 2f bd ba 96 5c bc
       0.04471156 0.07763798 -0.04287231 -0.01346367
0001c0 11 7a aa 3d cf 53 45 3d fa cb 27 bc bc 71 d4 bd
       0.083240636 0.04817563 -0.010241503 -0.103732556
0001d0 58 6a 61 bd a7 af 5f bd a9 4d 8f bd 69 e6 cf bd
       -0.055033058 -0.054610875 -0.069972344 -0.10151369
0001e0 e8 44 c3 3d 0b 0d f3 bd 2b 49 28 3d 15 fa e2 bd
       0.09534627 -0.11867722 0.041085403 -0.110828556
0001f0 50 8c b8 bd b9 10 c5 3d 3b 63 28 bd 25 d1 26 bd
       -0.090111375 0.0962233 -0.04111026 -0.0407268
000200 c0 b5 cc 3d 7b 25 e0 bd b7 6f 9b bd c4 cf c0 bd
       0.099956036 -0.10944649 -0.07589667 -0.09414628
000210 36 e0 b0 3d 5a 5b 9f bd 9e 10 f0 bd 39 06 a0 3c
       0.08636515 -0.07781096 -0.117219195 0.019534217
000220 5c 48 86 bd 37 aa 00 be 53 23 27 3d 1c 69 b3 3c
       -0.0655677 -0.12564932 0.040805172 0.021900706
000230 96 e3 a3 bf eb 3a a2 bf 5e b0 b5 bf 04 13 ba bf
       -1.2803829 -1.267423 -1.4194448 -1.4537053
000240 92 5d b2 bf 8c b9 98 bf bf 5b bc bf e7 1e b4 bf
       -1.3934805 -1.1931624 -1.4715499 -1.4071931
000250 e5 ff a6 bf 05 9a 99 bf f8 1d b1 bf f3 51 b1 bf
       -1.3046843 -1.2000128 -1.3837271 -1.3853134
000260 97 72 99 bf f3 fe a3 bf 69 df ad bf 85 dc ad bf
       -1.1988095 -1.2812179 -1.3583804 -1.3582922
000270 a1 27 b6 bf 45 64 ad bf bc 6a b2 bf bb 6a a3 bf
       -1.4230844 -1.3546225 -1.3938823 -1.2766947
000280 a0 bf b4 bf 7a 9c b1 bf 34 96 9c bf ef b1 aa bf
       -1.4120979 -1.3875878 -1.2233338 -1.3335551
000290 b7 1c bd bf ae d3 aa bf 82 97 a7 bf 12 c9 b3 bf
       -1.4774388 -1.334585 -1.3093112 -1.4045737
0002a0 8e e4 ae bf 89 8d b6 bf 10 b4 ab bf 12 2b b2 bf
       -1.3663499 -1.4261943 -1.3414326 -1.3919394
0002b0 5c 37 9e bf 4e 12 c1 bf a8 39 a9 bf e6 bb a9 bf
       -1.2360644 -1.5083711 -1.322072 -1.3260467
0002c0 03 71 b1 bf 10 c1 9d bf fc 46 92 bf 3e 1f af bf
       -1.3862613 -1.2324543 -1.1427913 -1.3681409
0002d0 e1 50 a2 bf 79 a1 a4 bf cc be a4 bf 96 04 a5 bf
       -1.2680932 -1.2861778 -1.2870727 -1.2892025
0002e0 a8 6d b4 bf 0b ba be bf a4 ee b9 bf 63 89 ae bf
       -1.4095964 -1.4900526 -1.4525952 -1.3635677
0002f0 43 95 a5 bf b3 17 b2 bf a1 8e bd bf d2 14 b3 bf
       -1.2936176 -1.3913482 -1.4809152 -1.3990729
000300 ae 7f ac bf cf 79 ac bf 5b 36 9e bf 96 90 ad bf
       -1.3476465 -1.3474673 -1.2360338 -1.3559749
000310 4d 36 a5 bf 92 9e a2 bf 1f 15 ad bf 58 8a af bf
       -1.2907196 -1.2704642 -1.3522071 -1.3714094
000320 ff 8b aa bf d9 88 a9 bf 37 2e b0 bf fd 3e a9 bf
       -1.3323973 -1.3244888 -1.3764104 -1.3222347
000330 c5 13 a5 bf 55 f7 bf bf 8f 08 a5 bf b9 51 9d bf
       -1.2896658 -1.4997355 -1.2893237 -1.2290565
000340 67 ad a8 bf 3e 07 9b bf aa 40 05 3e 40 57 f7 bc
       -1.3177918 -1.2111585 0.13012949 -0.030192971
000350 bd 61 83 3d 70 98 08 3b 2a 25 73 bd 51 5d 27 bd
       0.064151265 0.0020842813 -0.059361614 -0.040860478
000360 2f e8 eb 3d 49 f0 1c 3e 38 df 21 3e 28 70 d7 3c
       0.11518895 0.15326037 0.15807807 0.026298597
000370 03 a1 42 bb 93 06 42 bd 04 66 22 3d 4c e4 0e bd
       -0.0029698021 -0.04736955 0.03964807 -0.03488569
000380 3e fb 8a bc 00 83 2d 3e 16 09 30 bc ae d8 8f 3d
       -0.016965505 0.16944504 -0.010744354 0.0702375
000390 43 91 53 bd 12 e9 54 3c c1 0c 3d 3d 38 4f 0a 3d
       -0.051652204 0.012995021 0.04615474 0.033766955
0003a0 4d 22 6b 3d c8 6b f2 3d c9 6f 25 3e b8 fb 30 3d
       0.05740576 0.11836964 0.16155924 0.043208808
0003b0 29 f8 e7 3d fa 70 a6 bc db fc 13 bd 5f 7a 89 bc
       0.1132663 -0.020317543 -0.036129814 -0.016781984
0003c0 ed 70 04 bd df bc a9 3d c8 18 8d 3d c8 33 f6 3b
       -0.032334257 0.082879774 0.06889492 0.007513497
0003d0 15 57 12 3e 0a bb 46 3e 00 fd 17 3d b4 d4 76 3d
       0.14291032 0.19407287 0.037106514 0.060261443
0003e0 fa 10 80 bd c2 0f 0c 3e cb 47 b3 3d 35 ae cb 3d
       -0.06253238 0.13677886 0.08753928 0.09945337
0003f0 b6 30 37 3e 0b 44 19 bd 5e 38 44 bd 7c 0d 7a 3d
       0.17889675 -0.037418406 -0.04790532 0.061048016

0.bias f4 [70]
000000 68 11 1f 3d 08 c0 d5 bd 39 09 6d be 28 36 96 3c
       0.03883496 -0.10437018 -0.2314805 0.01833637
000010 95 57 c7 3b 1c 45 d4 3d fc a4 e5 3b 91 19 88 be
       0.0060834386 0.10364744 0.007008193 -0.26582006
000020 ec ed 31 be e0 18 8a bd 32 0b 4f bc c3 75 8a 3d
       -0.17375916 -0.06743026 -0.0126369465 0.067607425
000030 76 d9 df be 06 f9 c9 3c e3 9b e8 bd 9d 36 16 bd
       -0.43720597 0.024654876 -0.11357858 -0.036673177
000040 b4 f1 87 be b1 4c 86 bd 17 f4 d5 3d c9 13 8b bd
       -0.26551592 -0.065575965 0.10446947 -0.06790883
000050 57 90 5c 3d 9a af 44 be 10 b9 f4 be a1 8d bb be
       0.05384859 -0.19207612 -0.4779744 -0.36631492
000060 f5 49 bc 3d 88 16 19 be 3a ca 8a bc 25 ac 62 be
       0.09193794 -0.14950001 -0.016942132 -0.2213598
000070 ec a7 0e be 77 b1 0a bd c4 30 97 bd 29 6c 4c bb
       -0.13931245 -0.03386065 -0.07382348 -0.0031192398
000080 bc 6a f7 3c a4 d0 99 bd dc b5 82 3c c2 ad 94 3c
       0.030202262 -0.07510498 0.015955858 0.01814926
000090 dd 71 46 bd 03 01 95 bd a7 06 a7 be 44 ec 54 3c
       -0.048448432 -0.072755836 -0.32622263 0.012995783
0000a0 44 f5 60 bc a9 1e 97 bc 83 74 89 bd 22 b5 0d 3b
       -0.013730351 -0.018447237 -0.06711676 0.0021622856
0000b0 df 2e 88 3c 23 ac c7 bd a9 a6 7a be 52 7d f6 bc
       0.016623912 -0.09749629 -0.24477638 -0.030089054
0000c0 85 67 b6 bd 55 39 8f be 15 ea c7 3c a4 f5 db bd
       -0.089064635 -0.27973428 0.024403611 -0.107402116
0000d0 ce 92 54 3d 8b 3e 87 be ef 01 24 3d 07 7e 29 bc
       0.051897816 -0.26414904 0.040040907 -0.010344989
0000e0 d0 91 8b bd be 09 9e bd 4b 4a ce bd 13 78 a9 bd
       -0.06814921 -0.07716702 -0.10072764 -0.082748555
0000f0 e8 7d 03 be c1 0c cb bb 00 36 73 be 84 47 55 bd
       -0.12840998 -0.0061965887 -0.23751068 -0.052070156
000100 77 9d 7d bd 41 ca 47 3d 2b b9 f5 bd 84 81 a5 3d
       -0.06191775 0.04877687 -0.119982086 0.08081344
000110 fe 97 ab bd 3b f7 3f bd
       -0.083785996 -0.046866637

2.weight f4 [70, 70]
000000 d3 1f eb 3c 5e b3 c6 3c 4d 79 92 bf ee 7b 98 3d
       0.028701698 0.02425545 -1.1443268 0.07445513
000010 a8 7f b4 3d fa 8e ab bd 28 c9 8a be c1 f8 b2 bf
       0.08813411 -0.0837688 -0.27106595 -1.3982164
000020 07 c6 93 be 44 92 a6 bc b4 61 dd bd f9 ce d9 3d
       -0.2886202 -0.020333417 -0.10809651 0.1063518
000030 ee e4 08 c0 f3 bc 54 3c 50 fa 21 bf 4a 7d e1 bd
       -2.1389728 0.012984502 -0.6327257 -0.11010225
000040 72 a0 05 c0 52 b6 ac be 95 19 ae bd f7 35 21 bf
       -2.0879178 -0.3373285 -0.08500973 -0.6297297
000050 7a 79 35 3d 28 b6 3d bf 1c 5f 4c c0 a7 5e cb bf
       0.044305302 -0.74106073 -3.193305 -1.5888261
000060 3b 66 66 bd 3b 43 b3 bf cc f8 b3 be de 28 d0 bf
       -0.05624984 -1.4004892 -0.35150754 -1.6262472
000070 4f 9a 75 be df 15 ad be 35 54 4c bf e2 f2 01 3d
       -0.23984645 -0.3380575 -0.7981599 0.03172577
000080 a8 38 d1 3d 47 a6 c1 bd 56 00 9e bd 8c 42 c3 bd
       0.102158844 -0.09455543 -0.07714908 -0.09534177
000090 98 79 cd 3c 23 85 0d 3d d7 62 b3 bf 57 f2 f3 bd
       0.025082394 0.034550797 -1.4014539 -0.11911457
0000a0 6e e7 c9 3d 89 06 17 bf 3b 90 c0 3d f9 13 ca bd
       0.09858595 -0.58994347 0.0940251 -0.09867091
0000b0 92 82 be bd 20 a6 4f bf da 07 9f bf ee dd f7 3c
       -0.09302248 -0.8111286 -1.2424271 0.030257192
0000c0 01 f2 1b be 2d db 1c c0 20 62 1e bd 9f 95 dc be
       -0.15229036 -2.4508774 -0.038667798 -0.43082902
0000d0 79 fd d0 bd 00 14 84 bf 4f 85 69 bd 31 dc 7f 3d
       -0.10204596 -1.0318604 -0.0570119 0.06246585
0000e0 20 a4 95 bd aa 0a 6a 3c 72 2f d6 bd 5e b9 52 bf
       -0.07306695 0.014284769 -0.10458268 -0.823141
0000f0 3a 87 b6 be ea a5 17 bd 2a 2e 9f bf c1 af 45 bf
       -0.35650045 -0.037023462 -1.2435963 -0.77221304
000100 ff 5c 4b bf 8d 79 14 be 26 ee c5 be 33 65 e1 3d
       -0.79438776 -0.14499493 -0.38658255 0.1100563
000110 eb 3d 35 be ba c2 77 be 26 be c3 bd 81 51 e0 3d
       -0.17699401 -0.24195376 -0.09557752 0.10953046
000120 22 e5 55 3c d2 a4 52 be 3f 26 56 be 17 ad a8 bc
       0.013055118 -0.20570686 -0.20913027 -0.020590348
000130 45 2d 44 3d fb f6 19 bd aa a8 3b bd 24 34 00 bc
       0.047894735 -0.037589055 -0.045815147 -0.007824931
000140 b1 e2 3e be 24 35 11 3d 31 54 1b bd 6e 52 3c 3d
       -0.18641163 0.03545107 -0.037922088 0.04597705
000150 f1 82 3d 3d 52 29 b7 3d e6 69 9e 3c 1d 13 a8 bd
       0.046267454 0.08943428 0.019337606 -0.082067706
000160 cb 8b 97 be ad 10 d9 bb c7 77 be 3a 85 c4 43 3d
       -0.2959884 -0.0066243024 0.0014531546 0.047794838
000170 b6 a7 3e 3c 66 db 46 bb 15 1e 44 bd f1 d4 28 bc
       0.011636665 -0.0030343174 -0.04788025 -0.010304675
000180 8d 08 86 3d be 61 cb bc d1 4f 05 bd 3a 54 33 bd
       0.065446 -0.02482688 -0.032546822 -0.043781497
000190 f1 1f 96 bd c7 c0 08 be 77 ed c6 bc 5e ec 13 bc
       -0.07330311 -0.13354789 -0.024283154 -0.009028522
0001a0 50 ba 51 3d d6 d5 2b bd 91 a1 eb bd 17 94 a5 3d
       0.051203072 -0.041951977 -0.11505426 0.080848865
0001b0 92 c0 8b 3d 7b cd f9 3c 0b d9 16 3d 80 79 2c 3d
       0.06823839 0.030493489 0.036828082 0.04210806
0001c0 78 e2 53 bc 71 c7 ab 3d 42 53 80 bd fd 11 d1 bd
       -0.012932412 0.0838765 -0.0626588 -0.10208509
0001d0 ca 4a d7 bd 1f b6 50 bc 2d c6 51 3d 35 c5 2e bd
       -0.10512312 -0.012738734 0.051214386 -0.04266854
0001e0 bd 57 f2 bd 58 63 34 bd ac c1 da bd 33 b7 db bd
       -0.11833141 -0.044040054 -0.10681471 -0.10728302
0001f0 9a 59 95 bc 95 2c a8 3d af 25 a4 bd 08 b8 bd bd
       -0.018231202 0.08211628 -0.08015 -0.09263617
000200 7d f7 b0 3d 1c 4e 5f bd d3 28 ad 3d 6f 07 8b bd
       0.08640955 -0.05451785 0.08455052 -0.06788527
000210 9e af 79 bd 0d 8e a3 3d 4b 12 ef bd 38 20 95 3d
       -0.060958497 0.079860784 -0.11673411 0.07281536
000220 5e d0 2c 3d 08 b2 2c be 3f 2a 44 bc 28 a0 b7 bd
       0.042190902 -0.16864789 -0.011972963 -0.08966094
000230 e8 11 16 bd 99 81 73 bd a2 9e 92 3d 41 2a d7 bd
       -0.03663817 -0.059449766 0.07159163 -0.10506106
000240 0f d5 81 bd ef 28 90 3d f5 07 b4 bd e8 6e ee 3d
       -0.06339466 0.070390575 -0.0879058 0.116422474
000250 ad 42 b0 3d 7a 5c d3 bc 56 c3 d1 bd ee f6 a1 bc
       0.086064674 -0.025800932 -0.102423355 -0.019771066
000260 33 e9 7a bc c5 e0 b1 bd 84 15 ad 3b 08 c4 f4 bd
       -0.015314388 -0.086854495 0.005282106 -0.119514525
000270 22 66 c0 bd 27 fe e8 bd d1 74 bb 3c 91 bf 55 bd
       -0.0939448 -0.11376601 0.02288285 -0.052184645
000280 92 06 86 3d 6c b5 5e bd 04 c8 aa bd c7 9f 98 bd
       0.06544222 -0.054372236 -0.08338931 -0.0745235
000290 2c 60 19 3d ae cd ad 3d 0f 06 0c 3d 03 a2 84 bd
       0.037445232 0.08486496 0.034185465 -0.06476214
0002a0 03 72 bf 3d 22 5e 20 bd f6 7a 14 3c f2 65 ec 3d
       0.09347918 -0.039152272 0.009062519 0.11542882
0002b0 fa db 86 bd b9 f3 a1 3d 2a 0d fc bc 4a 9c 45 3c
       -0.06584926 0.079078145 -0.030767996 0.012061188
0002c0 d1 74 82 3d 89 e5 bd 3c 07 ba 96 bd 2b 2e 90 3d
       0.06369937 0.02318074 -0.07359701 0.07040056
0002d0 0f fe b6 bd 8d e0 a7 3d 9b 38 fa 3a 58 23 c9 3c
       -0.089351766 0.081971265 0.0019090356 0.024552986
0002e0 e2 06 f2 3d 1b ea 95 3c 0b d0 db bd 53 dc 18 3d
       0.11817719 0.018300107 -0.107330404 0.037319493
0002f0 ca ff c8 bd 9e 31 bb 3c af 01 86 bd ef fd 51 3d
       -0.09814413 0.022850808 -0.0654329 0.05126756
000300 84 e3 df 3a 98 c4 61 3c 9c 7c f1 bd 19 a3 be 3c
       0.0017081355 0.013779782 -0.117913455 0.02327113
000310 fc 67 a3 3c 88 67 92 bd 60 c6 fb 38 8c 44 2d bd
       0.019947045 -0.07148653 0.00012005563 -0.0423017
000320 10 8b bd 3d ac c2 e2 bd 63 84 b1 bc a0 51 5b bc
       0.0925504 -0.11072287 -0.021669572 -0.01338616
000330 a4 79 17 bd a5 08 39 3d 68 08 43 bd 81 77 dd bd
       -0.03698124 0.04517426 -0.04761544 -0.10813809
000340 e5 67 a3 bc 2a 1b 6d bd 52 e0 1b bd a9 2f 96 bb
       -0.019947002 -0.057887234 -0.038055725 -0.0045833183
000350 7c 16 41 c0 79 fe c5 bd d9 96 b8 bd b1 6e 92 3c
       -3.0169973 -0.096676774 -0.09013147 0.017875047
000360 8b 07 1a bf 40 8e 62 c0 c6 57 24 bf f8 11 10 be
       -0.6016776 -3.5399323 -0.6419643 -0.14069355
000370 17 65 e1 3c 01 6c 1f bd 8f a7 b7 c0 61 1c ea 3d
       0.027514024 -0.03892136 -5.739204 0.11431194
000380 e6 a2 e6 bf 43 10 20 be bb 6b af c0 cc 84 9c bf
       -1.8018463 -0.15631203 -5.4819007 -1.2228026
000390 f6 78 aa ba 76 4b a5 bf 2e 4d e6 bd 8f 5a e5 bf
       -0.001300602 -1.2913654 -0.112451896 -1.7918261
0003a0 6b e6 03 c1 e6 f9 8f c0 db 07 10 be 90 6f 68 c0
       -8.243754 -4.499255 -0.14065497 -3.6318092
0003b0 37 c7 9a bf f0 4b 87 c0 2d f0 5d bf a1 c1 68 bf
       -1.2092046 -4.2280197 -0.86694604 -0.90920454
0003c0 f3 f3 15 c0 2a 31 07 be d0 48 d7 3d 08 c3 2a be
       -2.3430145 -0.13202348 0.10511935 -0.16675961
0003d0 14 98 de 3b 8f d2 0b bd 72 ba b3 bc 96 5d 99 bc
       0.0067930315 -0.03413635 -0.02193949 -0.018721383
0003e0 ea 17 73 c0 6c 4f 13 bf a9 1f 63 3d 4b 64 ef bf
       -3.7983346 -0.57543063 0.055450115 -1.8702482
0003f0 57 d2 03 bd e3 b3 04 bf 32 32 6e 3d b5 e5 1b c0
       -0.032183018 -0.51836985 0.05815334 -2.4358952

2.bias f4 [70]
000000 ca 5b 26 be 6c 53 9d bd 7c e7 d4 3d 6d bd 57 be
       -0.16245952 -0.07681927 0.10395715 -0.21068354
000010 0c 29 d5 3c 1f fd 09 be f4 91 d0 bd 9b 18 da 3d
       0.02602055 -0.13475464 -0.10184088 0.10649224
000020 33 f1 85 3d 44 3a 4a bd e0 f6 a5 bc 06 43 a8 be
       0.06540146 -0.049371973 -0.02025932 -0.32863635
000030 5f 04 de 3d 5d 5f 3a be 7f 7f b9 3b 9a 7c b3 bc
       0.108406775 -0.1820044 0.0056609507 -0.02191
000040 11 71 07 be 82 9b ba bd 36 5b d3 bc 80 de 05 be
       -0.13226725 -0.09111692 -0.025800329 -0.13073158
000050 4d df 37 3d 9f c0 9a be 28 57 88 be e5 40 51 bd
       0.04489069 -0.30225083 -0.26628995 -0.05108728
000060 66 06 a8 3d be 5b 28 bd b9 1f 8c bb 3e 4d 92 bd
       0.082043454 -0.041103117 -0.0042762426 -0.07143639
000070 87 a5 3a be 03 63 97 3c b8 09 d6 bd 4f 95 8b be
       -0.18227206 0.01847983 -0.104510725 -0.2726235
000080 ad 53 d0 3d 9a 65 ea 3d 44 77 a2 bd 5e 0c 09 be
       0.1017221 0.1144516 -0.07932904 -0.13383624
000090 2f 13 88 bd 96 1b b6 3d 8e 68 e9 bb 65 2d c9 3c
       -0.06644284 0.0889198 -0.0071230596 0.024557779
0000a0 f3 ff a2 3b 1c 5a a4 3c c1 f6 9f 3d 7c 68 cb 3d
       0.004974359 0.020062499 0.078107364 0.09932038
0000b0 b3 15 40 3d 3f 2e e7 3d 77 f0 ec bd fa 38 c1 bd
       0.046895694 0.112881176 -0.115693025 -0.094346955
0000c0 53 3b 45 3d ba a5 0a bd aa e2 33 3d a7 12 99 bd
       0.04815228 -0.033849455 0.043917336 -0.07474261
0000d0 05 9c d9 3c c9 ac 3e ba e1 9b e9 bd f1 2c 71 be
       0.026563654 -0.0007273672 -0.11406685 -0.235523
0000e0 84 de b2 bd c8 ba 83 be dc 11 31 bd de d1 e2 bd
       -0.08733848 -0.2572844 -0.043229923 -0.11075185
0000f0 5f 55 93 3c 34 a9 3e bc ba 24 02 be ef 29 ca 3c
       0.017985044 -0.011637021 -0.12709323 0.024678199
000100 d0 de 75 3a fe 74 b6 3c 4a 33 7b 3d 43 5d 14 be
       0.000937921 0.022272583 0.06132821 -0.14488702
000110 59 f4 c5 be f2 a4 f9 bd
       -0.38662985 -0.12189664

4.weight f4 [70, 70]
000000 7a 7c 7d 3d d5 5d 66 3d 60 ce cb 3d cc 87 32 ba
       0.06188629 0.05624183 0.09951472 -0.00068103964
000010 7d 99 1f 3c 6e 84 92 bd 89 bc d3 bd 5d 47 ed bd
       0.009741184 -0.07154165 -0.103386946 -0.11585877
000020 b5 f4 a4 3d 9d 87 a6 3d b6 5c 77 bd a3 8c 90 bd
       0.08054487 0.08131335 -0.06039115 -0.07058074
000030 63 7e af bd 06 92 c9 bd 32 b2 47 3d c7 03 1d 3c
       -0.08569028 -0.09842305 0.048753925 0.00958342
000040 15 02 72 3d db b9 b2 3d 2c f9 3f bb a0 14 34 3d
       0.059084017 0.08726855 -0.0029292805 0.043964982
000050 a3 bd d9 3d e3 92 d7 bd 96 bd 86 bd 87 de 33 3d
       0.106318735 -0.10526063 -0.065791294 0.04391339
000060 a6 77 1b bd 22 11 cc 3d 9c f3 59 3d d5 17 f8 bd
       -0.037955903 0.09964205 0.05321084 -0.121139206
000070 4c 05 ee 3c d0 a7 86 3c 0a d5 e4 bd 89 c3 73 3d
       0.02905526 0.016437441 -0.111734465 0.05951265
000080 f4 15 0e bd 81 e3 ab bd a3 c4 8b 3c 57 24 46 3d
       -0.034688905 -0.08393002 0.017061537 0.0483745
000090 d1 6d cd bd 67 28 da bd 09 66 c9 bb a4 dd f2 3d
       -0.100307114 -0.106522374 -0.0061461967 0.11858681
0000a0 bf 24 a2 bd e2 8f b4 3c e8 c5 9e bc c3 94 80 bd
       -0.07917165 0.022041265 -0.019381478 -0.06278374
0000b0 01 65 39 3d 34 22 df bd 4e c1 be 3c e7 e0 74 3d
       0.04526234 -0.108951956 0.023285534 0.059784796
0000c0 b7 21 03 be ab e8 04 bd cf b6 6a bd a7 e3 cf 3d
       -0.1280583 -0.032448452 -0.057303246 0.10150843
0000d0 ca 0f ab bd 4a 77 c4 3b 21 9e 4f bd 6d 29 79 bd
       -0.08352621 0.0059956657 -0.050687913 -0.060830522
0000e0 21 27 8a bd 0f 55 72 3d 77 93 6c 3d ba 2e cd 3d
       -0.067457445 0.05916315 0.05775782 0.10018678
0000f0 a3 00 ee 3d f7 80 2d bc 14 fe 4f bd 1a 03 d6 bd
       0.11621215 -0.01058983 -0.050779417 -0.1044981
000100 e1 aa eb 3d f6 88 70 bd 3a 35 5e bd f0 90 56 bd
       0.11507202 -0.058724366 -0.05424998 -0.052384317
000110 78 59 ca bd ce e6 b6 3c c9 1b 48 3e 81 b2 c3 3e
       -0.09880346 0.022326853 0.19541849 0.38222125
000120 3f 4b 47 3d aa 48 b8 3e 90 42 36 3e af 14 d8 3e
       0.048655745 0.35992938 0.17798829 0.4220328
000130 66 5f 96 bd 76 18 14 bd 4a d6 fe 3e c9 44 96 3d
       -0.073424146 -0.03615614 0.49772865 0.073373385
000140 a1 5f ab 3d 96 69 74 3e a6 e9 13 bd b0 38 05 3e
       0.08367849 0.23868403 -0.036111496 0.13009906
000150 d5 3e 81 bd f9 48 6b 3d 62 6f 9b 3c a2 a5 a5 3d
       -0.063108124 0.05744264 0.01897401 0.080882326
000160 16 bd 0e 3d ea 9c 54 3e 71 a4 c7 bd d2 e9 fe 3e
       0.034848295 0.20762983 -0.097481616 0.49787766
000170 76 3e 82 3e 39 26 b6 3e 74 28 52 3e fb 96 c9 bd
       0.2543828 0.35576037 0.20523244 -0.0984325
000180 40 4d 17 3b 5a 06 14 bd 50 ed 25 3d c4 90 d9 3d
       0.0023086816 -0.03613887 0.040509522 0.10623315
000190 e9 9e 6e 3c 89 d7 14 3e 6a 84 1c bd 37 05 79 3d
       0.014564254 0.14535345 -0.038212217 0.06079599
0001a0 63 6b 38 3d ad 5d f6 3e ae c8 39 bd f3 30 a8 bd
       0.045024287 0.48118344 -0.0453574 -0.08212461
0001b0 20 54 1e 3e c5 44 ec bc cb 78 59 3f b4 9a c0 bd
       0.15461779 -0.028841386 0.8494994 -0.09404507
0001c0 e4 c6 2e bd 5f a0 22 3f 8c 54 a8 bd aa 50 67 3c
       -0.042670146 0.63525957 -0.08219251 0.014118353
0001d0 2b e6 9d 3d 20 f4 81 bd f2 93 09 3c 16 d7 37 3d
       0.07709917 -0.06345391 0.008397089 0.044882856
0001e0 82 86 8b 3d 00 3a cd bc 74 3e 4e 3e d1 88 e9 3e
       0.06812765 -0.02505207 0.20141011 0.45612195
0001f0 a6 e4 66 3d b0 2f 57 3e e1 8b 60 bd 23 87 76 3e
       0.0563704 0.21014285 -0.0548209 0.24074988
000200 77 30 21 3e 52 03 5b bd d3 b0 fe 3d 15 cf 95 bc
       0.15741144 -0.053469963 0.1243607 -0.018287221
000210 4e c4 61 3e 61 98 c0 bd 82 2d d7 3d 7f 78 36 3e
       0.2204754 -0.09404064 0.10506727 0.17819403
000220 41 6c 71 3a ea 46 11 3e bf 60 ee 3e 9c fc 4b 3e
       0.00092095515 0.14187208 0.46558186 0.19920582
000230 77 c4 71 bf ce 05 b3 bc a9 d6 ab 3c 40 e5 0c c0
       -0.94440407 -0.021853354 0.020976381 -2.2014923
000240 f0 b3 af be c1 91 1c 3c 7b 7a 1a bd 6e fc 89 3d
       -0.3431697 0.009556235 -0.037714463 0.067376
000250 c0 58 8f bd 6f e0 5e bf b0 9a 7a bf 1b 1f 3a c0
       -0.069993496 -0.8706121 -0.97892284 -2.9081485
000260 fa 39 be 3c f2 aa a1 bf 3f 99 21 3c aa 0a 9d 3d
       0.023221005 -1.2630293 0.009863197 0.0766805
000270 3c 52 33 be f6 4d 29 3d 61 d7 16 3d 6d 0d 8f bf
       -0.17511839 0.041334115 0.036826495 -1.1175972
000280 44 bf 78 3b b8 8b 46 c0 12 2d 09 c0 07 d3 21 bd
       0.00379558 -3.1022778 -2.1433759 -0.039507892
000290 4a 8a a7 be d0 c2 a8 bc 89 f3 1c bf 32 ab de 3c
       -0.32722694 -0.020600706 -0.61309105 0.027181242
0002a0 36 77 97 bf 09 4d c0 3c dd ce 16 3c 89 11 ba bf
       -1.1833255 0.023474233 0.0092045935 -1.4536601
0002b0 19 53 4b be 5d 8f 0a 3d 01 f0 09 bf ec 51 28 bf
       -0.19855918 0.033828128 -0.5388184 -0.6575
0002c0 e7 f5 cb 3d 8b e3 bc bc db 11 87 be b9 40 d7 bd
       0.099590115 -0.02305772 -0.2638081 -0.10510392
0002d0 7f 1b 0c bf 6b 72 f2 bd ed c5 b1 bd 3f 29 e4 bd
       -0.54729456 -0.1183823 -0.086803295 -0.111406796
0002e0 4a 94 48 3d f8 76 ea bd 12 a2 e9 bd 5c 4a fc be
       0.048969544 -0.11448473 -0.114078656 -0.49275482
0002f0 74 aa b0 3d 1d 6f 0d bf 45 00 9a bc 04 d0 14 3d
       0.08626261 -0.5524767 -0.018798957 0.03633119
000300 e7 e5 ff be 1e 9a bb bd b7 03 03 3d ac f7 15 c0
       -0.4998009 -0.09160255 0.031985965 -2.3432417
000310 7c d6 6d bc 2c 4c ef bf e9 61 3f bf e7 2c be bd
       -0.014516469 -1.8695121 -0.74758774 -0.09285908
000320 b7 67 44 bf 66 b2 2d bd 9c 7d 9b bf d8 b9 bf bb
       -0.76720756 -0.042406462 -1.2147708 -0.0058510117
000330 d5 05 47 bf 5a 47 3f bc 06 2e d8 3d 8c d8 dc be
       -0.77743274 -0.011674726 0.10555653 -0.43133962
000340 36 3a 51 c0 9c 4c 34 3d 77 09 a4 bf 7e 7f ed 3d
       -3.269178 0.044018373 -1.2815388 0.11596583
000350 6a 40 56 3d 60 e8 49 c0 1a 75 d3 be e5 de 54 bc
       0.052307524 -3.154808 -0.4130028 -0.012992595
000360 b0 c2 8c 3d 8d 7f 26 bd 6e e2 3f be ce ae 87 bf
       0.06873071 -0.040648986 -0.1873872 -1.0600221
000370 ed e9 b4 bf 56 bc 7e c0 bd fa 8f bd 91 a9 d3 bf
       -1.4133888 -3.980245 -0.070302464 -1.6536123
000380 d1 c4 ea bc 5b c4 a2 3d b3 5a 5d be 1a 30 65 3d
       -0.028658303 0.07947608 -0.2161663 0.055954076
000390 37 95 3b bc ac 20 ca bf 0e c9 ae bd 68 16 8b c0
       -0.01144915 -1.5791221 -0.08534442 -4.346485
0003a0 85 0f 34 c0 81 d1 a8 bd 0f dc aa be 02 ba dd bd
       -2.8134472 -0.08243085 -0.33371016 -0.10826494
0003b0 e9 f7 44 bf f9 4b 66 3d 87 b6 ce bf 92 72 56 bd
       -0.7694078 0.056224797 -1.6149453 -0.052355357
0003c0 9e c0 e0 bc cb 69 12 c0 fa 56 76 be a2 e3 c4 3d
       -0.027435597 -2.287707 -0.24056616 0.0961373
0003d0 aa 3e 5c bf c1 a2 6d bf 43 7b c2 3d 0d 1f 69 3d
       -0.8603312 -0.9282647 0.094961666 0.056914378
0003e0 b3 42 ea be d6 43 c7 be d2 43 49 bf 99 8f 00 bd
       -0.45754012 -0.38918942 -0.7861911 -0.031386945
0003f0 b8 9d dd 3d 23 83 bb 3d 53 4c 4c bd d3 81 9b bb
       0.10821098 0.09155872 -0.049877476 -0.004745701

4.bias f4 [70]
000000 1b 28 b5 bc d6 cc 23 3e 60 67 66 bd f3 12 df bd
       -0.02211385 0.15996107 -0.05625093 -0.10892286
000010 de 41 2b be 8b 5f 80 bd b9 9e 44 bd 7f 52 82 3d
       -0.16724345 -0.062682234 -0.048002932 0.06363391
000020 fe 1c 04 be 90 f1 7d be 30 04 f6 bc f3 b9 97 bc
       -0.12901685 -0.2479918 -0.030031294 -0.018521285
000030 6e cb 6f bd 6f dc b1 3d 37 65 17 be da 16 aa bd
       -0.058543615 0.086846225 -0.14784704 -0.0830514
000040 f8 42 22 3d b7 56 1b 3d 18 7e 8e bd a7 ca ea 3d
       0.039614648 0.037924495 -0.06957644 0.11464434
000050 9a 2d 27 be 05 c1 80 bc a5 55 c6 3c 55 c7 ca bc
       -0.1632599 -0.015717039 0.02421076 -0.024753252
000060 bc 3c 54 3d 15 fd 46 bd cb d5 e3 3d 9a 67 a4 bd
       0.051815733 -0.0485812 0.11124762 -0.08027573
000070 56 37 76 3c ee b5 08 be 98 d1 86 3c 84 d0 c0 bd
       0.015027842 -0.1335065 0.016457364 -0.09414771
000080 23 6c 0f be 2c 8a 3b 3d f1 5c ca bd 03 cb 22 bd
       -0.14006095 0.045786068 -0.098810084 -0.03974439
000090 de b7 2a ba 7e 72 a2 bd 78 be 95 bc c6 50 b8 bd
       -0.00065123837 -0.07931994 -0.0182793 -0.08999781
0000a0 56 5f 0d 3e e2 6a 81 bd 97 05 2e bd 87 78 23 bc
       0.13805899 -0.063192144 -0.0424858 -0.009977466
0000b0 52 12 dc 3d 5c 5e 41 bc 63 6d 27 be 34 9f bd bc
       0.10745682 -0.011802282 -0.16350321 -0.023147203
0000c0 de b4 00 3e 36 49 6d ba e9 3a 38 be b2 3e 25 bd
       0.12568995 -0.0009051742 -0.17991222 -0.040342994
0000d0 4a 85 9e bd da 69 a3 bd 89 74 cf bc 52 6e 36 bd
       -0.077402666 -0.07979174 -0.025324123 -0.044538803
0000e0 04 c8 72 3d 80 d6 99 3a 8e 00 91 bd 74 6e 17 bd
       0.05927278 0.00117369 -0.07080184 -0.03697057
0000f0 9a 8f 6a be 0b 8e cb bd 26 15 03 bd 0d fb 42 3d
       -0.22906342 -0.09939202 -0.03200259 0.047602702
000100 11 e4 dd 3d 02 0c 0a be aa 1e 1f bd f9 d6 f8 bd
       0.10834516 -0.13481143 -0.038847603 -0.12150378
000110 a4 63 d2 3d bb 47 5f bd
       0.10272911 -0.054511767

6.weight f4 [17, 70]
000000 5e 28 ce bd 28 6b 6e 3c 39 4d 46 be 82 31 f2 be
       -0.10066293 0.014551915 -0.19365396 -0.47303396
000010 79 62 44 bf 87 f0 ab be fb 3d f2 bd 08 02 11 be
       -0.7671276 -0.33581945 -0.11828228 -0.14160931
000020 d2 42 99 bd 04 0e 42 bf 25 08 fd be 80 40 aa 3d
       -0.07483448 -0.75802636 -0.49420276 0.08313084
000030 56 08 0c be 98 d4 b6 bd bf 34 48 be bc 5c 8f 3d
       -0.13675055 -0.08927268 -0.19551371 0.070001096
000040 99 00 fe 3c 01 00 71 3d 78 4d b5 bd 40 d1 59 be
       0.031006144 0.058837894 -0.088526666 -0.21271229
000050 38 49 aa be 01 66 31 3d 2d cb f8 bc e0 16 89 3d
       -0.33258986 0.04331017 -0.03037032 0.06693816
000060 5a cd ca 3d 77 0c d9 be 77 09 f4 3c 18 91 d0 3c
       0.09902449 -0.42392322 0.02978967 0.025459811
000070 f8 a1 a3 3d d0 26 ec be 9e f2 d1 bd e6 a9 a7 bd
       0.079898775 -0.46123362 -0.10251354 -0.081867024
000080 c4 c5 fb bd c5 fa 22 be 57 c1 e9 3c d3 7d c1 be
       -0.1229358 -0.15915973 0.028534574 -0.3779131
000090 c8 2a 88 3c 9d 34 a2 bd 19 4d f6 bd 06 bd c8 be
       0.016621962 -0.079201914 -0.12026424 -0.39206713
0000a0 af a1 c5 bd 5b e5 8a 3d 78 e7 8a bd dd 14 df 3c
       -0.09649979 0.06782027 -0.067824304 0.027231628
0000b0 b3 ee 01 be 9f 3c 19 be d4 1a 11 bf 0e 22 a9 bd
       -0.12688713 -0.14964531 -0.5668156 -0.082584485
0000c0 94 f4 e3 bc c6 12 f2 bd c3 cc 10 be fe 67 a2 3d
       -0.027826585 -0.11819987 -0.1414061 0.07929991
0000d0 22 d5 0f be ca c6 d8 be 8a f2 38 bd 4f 22 1e be
       -0.14046147 -0.42339164 -0.04515318 -0.15442775
0000e0 19 e7 80 3d fb d7 74 bd c7 40 d0 3d be c2 2c 3d
       0.062940784 -0.059776288 0.10168605 0.042177908
0000f0 8d 89 1a bf 78 4d 4f be 8b 6c 19 bd 36 f9 3b bd
       -0.60366136 -0.20244396 -0.03745703 -0.045891963
000100 25 69 dd bd fe a1 18 be 7d 87 21 bd 30 8c d2 be
       -0.1081107 -0.14905545 -0.039435852 -0.4112258
000110 7d ba aa bd 94 db ed bd dc 2d b6 bc fc e6 b7 bd
       -0.08336351 -0.11614147 -0.022238664 -0.08979604
000120 f6 3b 0c 3d 96 bd 16 bd eb d1 ee bd 61 60 93 bd
       0.03423687 -0.036801897 -0.116611324 -0.07196117
000130 c7 b7 dc bc 7a 22 29 3d ee 8c 36 bd cc c3 bc bd
       -0.0269431 0.041292645 -0.044567995 -0.09217033
000140 ca 57 e7 bd da 22 8e bd 2f 96 cd 3d c7 df be bd
       -0.11296041 -0.06940241 0.10038411 -0.09320026
000150 04 8d af bd 94 81 5a bc ba 7b 89 bd 23 50 b0 bd
       -0.085718185 -0.013336558 -0.06713052 -0.08609035
000160 8d 1e fa 3d 15 0a 19 3d 5b 5b 89 bd 40 ab 4d bd
       0.12212858 0.03736313 -0.06706878 -0.050212145
000170 34 26 ac 3c 9b 86 17 3c 27 40 93 3d 61 d8 13 bd
       0.02101431 0.009248401 0.071899705 -0.036095027
000180 5b 3d 0e bb 5c 98 2a 3d 24 94 23 bd 81 53 bf bd
       -0.0021704051 0.041649207 -0.0399362 -0.09342099
000190 81 94 7a bd bb 12 2b bd ed 49 c3 3d 24 b4 9f 3d
       -0.06117678 -0.04176591 0.095355846 0.07798031
0001a0 b6 a9 8c 3d b1 67 02 bb 30 37 ca 3d 1b bd cc ba
       0.06868307 -0.001989823 0.098738074 -0.0015620323
0001b0 d7 b5 34 bd e8 4e c5 bd e1 55 d3 3d 68 79 f2 3d
       -0.04411873 -0.09634191 0.103191145 0.11839563
0001c0 36 ea ac bd 1a 40 87 bd 16 74 c3 bc a6 73 48 bc
       -0.0844311 -0.06604023 -0.023859065 -0.012234604
0001d0 48 1d 84 bd 60 54 c3 bd 5c 88 dc 3d 69 d5 b7 bb
       -0.064508975 -0.09537578 0.10768196 -0.0056101573
0001e0 9b b9 f0 bd 00 dd e1 3d 51 02 5e bb c4 1a 94 3d
       -0.117541514 0.110284805 -0.0033875892 0.07231668
0001f0 65 f9 ef 3c cb 65 a7 3d 02 c6 a4 3d c4 d0 d0 bd
       0.029293725 0.08173712 0.080455795 -0.10196069
000200 63 b3 e5 bb 0f b6 0d bc bf af 1a 3d 8a 8c e1 3c
       -0.00700991 -0.008649363 0.03776526 0.027532835
000210 8c 5f b5 bd 80 55 05 3d 3b ad 35 bd 8b 7f 53 3d
       -0.08856115 0.032552242 -0.04435466 0.051635306
000220 54 fc b7 bd f0 25 81 bb 6c 8a 12 3e 1b ef dd 3d
       -0.08983675 -0.00394129 0.14310616 0.108366214
000230 4b e1 90 bd e7 53 d9 3d dd c2 e7 3d e6 9a b4 bd
       -0.07074221 0.10611706 0.11316464 -0.08818607
000240 65 a8 4d 3c 6d c6 50 bd 59 6e e1 3d 2d df 98 bd
       0.012552355 -0.050970484 0.11007375 -0.074644424
000250 b3 a3 be 3b 44 3b d8 bd a2 f6 8e 3c 05 17 61 3d
       0.0058178543 -0.10558179 0.017451588 0.054953594
000260 7e 18 ae bd d5 58 ba 3c 10 81 b9 3d 9f 58 a1 bc
       -0.08500765 0.022747437 0.0905782 -0.019695578
000270 e4 6e d5 bd 2d 6a dd bd 7a ed 54 3d f5 c3 74 bd
       -0.10421541 -0.10811267 0.051984288 -0.05975719
000280 e4 b7 7e 3d bb 76 5c bd 2f d3 cd bd b5 d5 2d bd
       0.06218709 -0.053824168 -0.10050046 -0.042440135
000290 47 82 3b bd 9a 72 79 3c 10 9a ab bd 16 8d 44 bd
       -0.04577854 0.015225077 -0.083789945 -0.047986113
0002a0 1b 6b 1d bc 69 60 f4 3d a2 6c 2d bd dd 15 9b 3d
       -0.009608055 0.11932451 -0.04233993 0.075725295
0002b0 54 1a c5 3c d9 5a a9 bd 6b c7 a9 bd fb 95 a0 bd
       0.024060406 -0.08269281 -0.08289989 -0.078411065
0002c0 8c c6 3e 3c 65 1b 94 3d 90 d4 c5 bd bd 73 03 bd
       0.011644017 0.072317876 -0.09659684 -0.0320928
0002d0 d6 11 26 bc 5b bb e5 bd e3 2d d1 bd 24 08 7b 3d
       -0.010136088 -0.11217376 -0.1021383 0.06128706
0002e0 13 0e 0d bc 47 8f 9a bd 27 8a 94 3c b4 3d f2 3d
       -0.008609313 -0.07546859 0.018132282 0.11828175
0002f0 b1 19 e8 3d b8 27 e4 bb 3a a8 64 3d 66 64 c5 3d
       0.11333025 -0.0069627427 0.055824496 0.0963829
000300 36 db e8 bd f6 bc e4 bd 04 58 0f bd 4e f8 d7 3d
       -0.11369936 -0.11168854 -0.034996048 0.10545407
000310 24 13 3c 3d ba 5f 8b bc 97 34 49 3c 9c 11 c3 3c
       0.04591669 -0.01701342 0.012280605 0.023812108
000320 27 b0 a7 bd 6c 23 f5 3c f6 d4 99 3c ee af 5b 3c
       -0.08187895 0.029924117 0.018778306 0.013408644
000330 80 97 3f 3d de 14 4d 3d 11 6e 40 bc 87 66 5b bd
       0.04677534 0.05006873 -0.011744992 -0.053564575
000340 3a a2 e7 bd cd b5 69 3d 7c 78 0b 3c 97 bf 64 be
       -0.11310239 0.057058144 0.008512612 -0.2233871
000350 bd df d8 3d 0b 0d 30 3d d0 6a 1f bc 75 ee 4c bd
       0.1058955 0.04298119 -0.009730056 -0.050032098
000360 12 a8 06 3d 2b 23 08 be e5 56 ab 3d d8 a0 21 3d
       0.032875128 -0.13294666 0.08366183 0.039460033
000370 f1 b9 92 3d 2d 4a cc bd f2 28 9c bd 57 26 4a bd
       0.07164372 -0.099750854 -0.07624997 -0.04935297
000380 79 ac 56 3d eb 06 92 bd 13 3c cc bd 0f 34 ba bd
       0.052410576 -0.07130226 -0.09972396 -0.09091961
000390 0f 61 8a bd 96 06 1d be e2 16 b6 bd 98 e9 4e 3d
       -0.06756794 -0.15334544 -0.08891083 0.05051574
0003a0 c6 7d 5a be c9 f7 48 bd f1 b0 a0 3d c4 12 ab bd
       -0.21337041 -0.04906443 0.07846249 -0.08353189
0003b0 74 ff cc bb 42 7f 80 bd ce 90 70 3d 60 39 dd 3d
       -0.0062560383 -0.062742725 0.058731847 0.10801959
0003c0 2d 2a 62 3d 4d a1 ba bd 4a ff c8 bd 52 3a bb 3d
       0.055216003 -0.09112797 -0.098143175 0.09141983
0003d0 27 5d a7 3b fd b8 83 bd 58 0c cc 3d 49 6a a4 3d
       0.00510754 -0.06431768 0.09963292 0.08028085
0003e0 05 af 0d be ce a6 ad bd eb ff d1 bd 06 02 c4 bd
       -0.13836296 -0.08479081 -0.102538906 -0.095706984
0003f0 d1 e0 eb 3d f0 ab a3 3d 86 23 26 bd 24 9b f3 bd
       0.1151749 0.07991779 -0.04056122 -0.11894825

6.bias f4 [17]
000000 6e 73 70 bd cd b0 06 3e 66 60 dc bd 74 6d 70 bd
       -0.058703832 0.13153382 -0.10760574 -0.058698133
000010 75 af 47 be 0b 1a 0f bd 42 f9 43 bf 2a 65 5d bd
       -0.19500525 -0.034936946 -0.7655221 -0.054051556
000020 99 8f 6e bd b3 4c 13 be 5f 49 ba bd 84 ea 2d bd
       -0.058242414 -0.14384727 -0.09096026 -0.04245998
000030 88 c2 02 be c4 0d cb 3c af 05 6f be bd 84 cc 3c
       -0.1276952 0.024786837 -0.23342012 0.024965638
000040 f0 7b ca bd
       -0.098869205

8.weight f4 [2, 17]
000000 97 f0 d3 bf af f9 4f 3e a8 4b 5b 3e 1b 54 1a 3e
       -1.6557797 0.2031009 0.2141558 0.15071146
000010 15 52 c7 c1 76 67 57 bd b9 25 29 c1 33 b2 37 3e
       -24.91508 -0.052588902 -10.57171 0.17939071
000020 c6 7f 9a 3c 4e 2a 4f c1 ba de 8e bd 57 8e b2 3e
       0.018859755 -12.947828 -0.069760755 0.34874222
000030 b6 4b 3f be ca 52 15 be 9b 76 d2 c1 1c 2c 0b c1
       -0.18681225 -0.14582363 -26.307913 -8.698269
000040 70 e5 5f be 94 2e 12 c0 dc b5 6d 3e 6a 13 22 bd
       -0.21864867 -2.284093 0.23213905 -0.039569296
000050 1b 2c b2 3e b2 b0 06 c2 b9 9d 14 be b5 fa 5c c1
       0.34799275 -33.672554 -0.14513291 -13.811208
000060 af 95 03 3e 44 a8 c8 bc dc a3 87 c1 39 ce 30 3e
       0.12850069 -0.024494298 -16.95501 0.17266168
000070 cc b2 b7 3e 06 4f f3 bd fe 8f 9f bd f7 b4 0d c2
       0.358786 -0.11880307 -0.07791136 -35.426723
000080 0f 48 37 c1 32 c6 99 3d
       -11.455092 0.07508506

8.bias f4 [2]
000000 c9 48 fc 41 56 31 1a 42
       31.53554 38.54818
